[2021-08-26 16:07:11,492 INFO]  * src vocab size = 258
[2021-08-26 16:07:11,492 INFO]  * tgt vocab size = 260
[2021-08-26 16:07:11,492 INFO] Building model...
[2021-08-26 16:07:16,066 INFO] NMTModel(
  (encoder): TransformerEncoder(
    (embeddings): Embeddings(
      (make_embedding): Sequential(
        (emb_luts): Elementwise(
          (0): Embedding(258, 200, padding_idx=1)
        )
      )
      (pe): PositionalEncoding(
        (dropout): Dropout(p=0.3, inplace=False)
      )
    )
    (transformer): ModuleList(
      (0): TransformerEncoderLayer(
        (self_attn): MultiHeadedAttention(
          (linear_keys): Linear(in_features=200, out_features=200, bias=True)
          (linear_values): Linear(in_features=200, out_features=200, bias=True)
          (linear_query): Linear(in_features=200, out_features=200, bias=True)
          (softmax): Softmax(dim=-1)
          (dropout): Dropout(p=0.3, inplace=False)
          (final_linear): Linear(in_features=200, out_features=200, bias=True)
        )
        (feed_forward): PositionwiseFeedForward(
          (w_1): Linear(in_features=200, out_features=2048, bias=True)
          (w_2): Linear(in_features=2048, out_features=200, bias=True)
          (layer_norm): LayerNorm((200,), eps=1e-06, elementwise_affine=True)
          (dropout_1): Dropout(p=0.3, inplace=False)
          (relu): ReLU()
          (dropout_2): Dropout(p=0.3, inplace=False)
        )
        (layer_norm): LayerNorm((200,), eps=1e-06, elementwise_affine=True)
        (dropout): Dropout(p=0.3, inplace=False)
      )
      (1): TransformerEncoderLayer(
        (self_attn): MultiHeadedAttention(
          (linear_keys): Linear(in_features=200, out_features=200, bias=True)
          (linear_values): Linear(in_features=200, out_features=200, bias=True)
          (linear_query): Linear(in_features=200, out_features=200, bias=True)
          (softmax): Softmax(dim=-1)
          (dropout): Dropout(p=0.3, inplace=False)
          (final_linear): Linear(in_features=200, out_features=200, bias=True)
        )
        (feed_forward): PositionwiseFeedForward(
          (w_1): Linear(in_features=200, out_features=2048, bias=True)
          (w_2): Linear(in_features=2048, out_features=200, bias=True)
          (layer_norm): LayerNorm((200,), eps=1e-06, elementwise_affine=True)
          (dropout_1): Dropout(p=0.3, inplace=False)
          (relu): ReLU()
          (dropout_2): Dropout(p=0.3, inplace=False)
        )
        (layer_norm): LayerNorm((200,), eps=1e-06, elementwise_affine=True)
        (dropout): Dropout(p=0.3, inplace=False)
      )
    )
    (layer_norm): LayerNorm((200,), eps=1e-06, elementwise_affine=True)
  )
  (decoder): TransformerDecoder(
    (embeddings): Embeddings(
      (make_embedding): Sequential(
        (emb_luts): Elementwise(
          (0): Embedding(260, 200, padding_idx=1)
        )
      )
      (pe): PositionalEncoding(
        (dropout): Dropout(p=0.3, inplace=False)
      )
    )
    (transformer_layers): ModuleList(
      (0): TransformerDecoderLayer(
        (self_attn): MultiHeadedAttention(
          (linear_keys): Linear(in_features=200, out_features=200, bias=True)
          (linear_values): Linear(in_features=200, out_features=200, bias=True)
          (linear_query): Linear(in_features=200, out_features=200, bias=True)
          (softmax): Softmax(dim=-1)
          (dropout): Dropout(p=0.3, inplace=False)
          (final_linear): Linear(in_features=200, out_features=200, bias=True)
        )
        (context_attn): MultiHeadedAttention(
          (linear_keys): Linear(in_features=200, out_features=200, bias=True)
          (linear_values): Linear(in_features=200, out_features=200, bias=True)
          (linear_query): Linear(in_features=200, out_features=200, bias=True)
          (softmax): Softmax(dim=-1)
          (dropout): Dropout(p=0.3, inplace=False)
          (final_linear): Linear(in_features=200, out_features=200, bias=True)
        )
        (feed_forward): PositionwiseFeedForward(
          (w_1): Linear(in_features=200, out_features=2048, bias=True)
          (w_2): Linear(in_features=2048, out_features=200, bias=True)
          (layer_norm): LayerNorm((200,), eps=1e-06, elementwise_affine=True)
          (dropout_1): Dropout(p=0.3, inplace=False)
          (relu): ReLU()
          (dropout_2): Dropout(p=0.3, inplace=False)
        )
        (layer_norm_1): LayerNorm((200,), eps=1e-06, elementwise_affine=True)
        (layer_norm_2): LayerNorm((200,), eps=1e-06, elementwise_affine=True)
        (drop): Dropout(p=0.3, inplace=False)
      )
      (1): TransformerDecoderLayer(
        (self_attn): MultiHeadedAttention(
          (linear_keys): Linear(in_features=200, out_features=200, bias=True)
          (linear_values): Linear(in_features=200, out_features=200, bias=True)
          (linear_query): Linear(in_features=200, out_features=200, bias=True)
          (softmax): Softmax(dim=-1)
          (dropout): Dropout(p=0.3, inplace=False)
          (final_linear): Linear(in_features=200, out_features=200, bias=True)
        )
        (context_attn): MultiHeadedAttention(
          (linear_keys): Linear(in_features=200, out_features=200, bias=True)
          (linear_values): Linear(in_features=200, out_features=200, bias=True)
          (linear_query): Linear(in_features=200, out_features=200, bias=True)
          (softmax): Softmax(dim=-1)
          (dropout): Dropout(p=0.3, inplace=False)
          (final_linear): Linear(in_features=200, out_features=200, bias=True)
        )
        (feed_forward): PositionwiseFeedForward(
          (w_1): Linear(in_features=200, out_features=2048, bias=True)
          (w_2): Linear(in_features=2048, out_features=200, bias=True)
          (layer_norm): LayerNorm((200,), eps=1e-06, elementwise_affine=True)
          (dropout_1): Dropout(p=0.3, inplace=False)
          (relu): ReLU()
          (dropout_2): Dropout(p=0.3, inplace=False)
        )
        (layer_norm_1): LayerNorm((200,), eps=1e-06, elementwise_affine=True)
        (layer_norm_2): LayerNorm((200,), eps=1e-06, elementwise_affine=True)
        (drop): Dropout(p=0.3, inplace=False)
      )
    )
    (layer_norm): LayerNorm((200,), eps=1e-06, elementwise_affine=True)
  )
  (generator): Sequential(
    (0): Linear(in_features=200, out_features=260, bias=True)
    (1): Cast()
    (2): LogSoftmax(dim=-1)
  )
)
[2021-08-26 16:07:16,071 INFO] encoder: 2018096
[2021-08-26 16:07:16,071 INFO] decoder: 2393156
[2021-08-26 16:07:16,071 INFO] * number of parameters: 4411252
[2021-08-26 16:07:16,073 INFO] Starting training on GPU: [0]
[2021-08-26 16:07:16,073 INFO] Start training loop and validate every 100 steps...
[2021-08-26 16:07:18,587 INFO] Loading dataset from tree_data/identical/identical.train.0.pt, number of examples: 90000
…
